DDPG/src/models/checkpoint_actor.pth (torch_old, 169452 bytes, 6 tensors)

fc1.weight f4 [256, 33]
000000 40 38 97 bd 53 06 b6 bd ab bd 2d 3e 22 41 83 3c
       -0.07383776 -0.08887925 0.16966884 0.016022269
000010 40 bb b8 bc c7 be a7 3e c9 31 cd bc ec fd 0d 3e
       -0.022550225 0.3276274 -0.025048153 0.13866395
000020 4b f3 ed bd 4e 16 f3 3c ee c8 14 3c 35 6a b3 bd
       -0.1161867 0.029673722 0.0090811085 -0.08760492
000030 31 c3 93 3d 74 64 86 3c 38 c9 8a 3e 5c 93 fd 3c
       0.07214964 0.016405322 0.27106643 0.030954055
000040 1f 98 0c 3e 74 a1 97 3d f9 ad 40 be 8f a8 70 bd
       0.13729905 0.074038416 -0.18816365 -0.0587545
000050 01 a9 c0 bd 0c 0b 85 3b 59 f6 34 bd b2 fd 08 3d
       -0.09407235 0.004060155 -0.044180248 0.033445068
000060 8b 6e f6 bc 77 38 6e be 00 5b b3 3e 28 3b 0c 3e
       -0.030082008 -0.23263727 0.35030365 0.13694441
000070 b5 df 2a be 70 2a 01 3d 13 95 d4 bd 74 00 e9 3c
       -0.166869 0.031534612 -0.10379996 0.028442599
000080 b9 b9 24 bf ee 5f 37 be 59 24 10 3f ad b1 8b be
       -0.6434589 -0.17907688 0.5630546 -0.27283993
000090 9c 7d a7 bd 93 c8 1a 3e 84 1c 53 bd f2 6e cb bd
       -0.08178255 0.15115575 -0.051540866 -0.099332705
0000a0 ec 08 3f be 05 ff fd 3e 12 c9 50 3e dc f6 3c bd
       -0.18655747 0.49608627 0.20389202 -0.04613386
0000b0 0f f4 28 3e bf 66 b3 3c 1e 3e 7a 3e 4e 39 19 be
       0.16499351 0.02189958 0.24437758 -0.14963266
0000c0 8d 3d 2b 3d dc ad f6 bc 2f 61 da bd ab cc 34 bc
       0.041806746 -0.0301122 -0.106630675 -0.011035125
0000d0 5d 84 d3 bb 41 bc 07 be 2d c3 18 3e 11 cb 66 3e
       -0.006454988 -0.13255407 0.14918204 0.22538401
0000e0 5a 96 11 3e 3e d8 b7 bd 8b 56 88 3d 7c 2c 8a bd
       0.14217511 -0.08976792 0.06657132 -0.06746766
0000f0 52 56 b1 3e d5 07 3a 3e ca 5b 71 bd c4 5f ab be
       0.3463617 0.1816705 -0.058925427 -0.334715
000100 1a 4e 54 3d bb 54 81 bf 4d 69 03 bf ca dc ab 3b
       0.051832296 -1.0103983 -0.5133255 0.005244826
000110 bf 4b 2e be d0 ef aa 3c 98 05 bd 3c a2 43 d7 3d
       -0.17021082 0.020866305 0.023073956 0.10510947
000120 5a a9 a7 bb 49 b6 88 bd 3c 62 90 3e f0 25 3c bd
       -0.005116624 -0.06675393 0.28199947 -0.045934618
000130 ad 5a 5f 3d 13 9b 7b bd 52 49 10 3d 99 f9 93 3e
       0.054529835 -0.061427187 0.035226174 0.28901365
000140 d8 38 2c 3e 45 ee 8f 3e 7c a0 88 bd 28 41 e5 3d
       0.16818559 0.28111473 -0.06671235 0.11194068
000150 fc 46 08 be 7d be 3a 3d 22 54 01 3d 63 bc f3 3c
       -0.13308328 0.04559182 0.031574376 0.029752916
000160 ca 36 29 be 9a 6b 4f bd b3 7c c4 3d 88 fe 91 3d
       -0.16524807 -0.050639726 0.09594097 0.07128626
000170 b9 be c7 bd 0d 4e 89 bd bb d4 f5 3d 28 41 06 3d
       -0.09753174 -0.0670434 0.12003466 0.03277698
000180 c0 e1 9b 3b 7c a1 12 bd 8c 81 2b bf f8 b5 33 3e
       0.004757136 -0.035798535 -0.6699455 0.17549884
000190 1f ca 82 bd 4c bd 10 3e a0 12 b2 bd ab 76 43 3d
       -0.06386208 0.14134711 -0.08694959 0.047720592
0001a0 7f 1a 70 bd be fe 0f bd fe 0c 13 3d 20 b4 83 be
       -0.05861902 -0.03515505 0.035901062 -0.25723362
0001b0 84 c1 1c 3e 17 a3 0b 3d f7 2c 67 bd de b2 46 be
       0.15308195 0.03409108 -0.056439366 -0.1940417
0001c0 f2 a9 60 bb 3f 30 a6 3e 11 f8 44 bd 18 b4 8f 3d
       -0.0034280983 0.32458684 -0.048088137 0.07016772
0001d0 55 07 49 3d fb 32 70 3d 4b 1e a1 bc 7a 04 51 be
       0.049079258 0.05864237 -0.019667765 -0.20411864
0001e0 f5 a4 02 be 99 17 9b 3e 3d f0 a0 3c 1e 41 9a 3d
       -0.12758239 0.3029144 0.019645805 0.07531951
0001f0 d7 7f 51 3d 99 f5 47 be ca 76 63 be 31 9e 91 3d
       0.05114731 -0.19527282 -0.22213283 0.07110251
000200 8c 51 63 bd b9 e1 80 3e 38 cd 34 bd 11 59 86 3d
       -0.05549769 0.25172213 -0.044141024 0.06559957
000210 e9 dc 86 3c 1d 15 9c bd 4b f5 5d 3e ed 47 2c be
       0.01646276 -0.076212145 0.21675603 -0.16824313
000220 ce a4 16 bc 6b 06 ef bd bd 96 85 be a8 a0 1d 3e
       -0.009194566 -0.11671146 -0.26091567 0.15393317
000230 7e fa 19 3d e1 2e 2a 3e 67 26 da bd 63 c1 ac bd
       0.037592404 0.16619445 -0.10651856 -0.08435323
000240 fd 97 cb bd d1 c4 f0 3b 88 2d a4 3e 21 c2 c0 3c
       -0.09941099 0.007347681 0.32065988 0.023530068
000250 68 55 b4 bd 04 2c bf bd fa 5e e0 3d ff 9c 46 be
       -0.088053524 -0.09334567 0.10955615 -0.19395827
000260 6c 3d 3c be cf dc 43 be e5 bc 31 3e a6 0f a7 3d
       -0.18382806 -0.191272 0.17357214 0.081572816
000270 5c 74 89 3e 1a 33 0a 3e 94 2d 05 3e d9 92 a5 bd
       0.26846588 0.13496056 0.13005668 -0.080846496
000280 03 0b 8f 3d b8 4f 37 3c 4b 6b bd 3d 28 a8 74 3d
       0.06984522 0.01118844 0.0924898 0.05973068
000290 27 69 7d be cd d7 b9 3e 95 4d 79 3e e6 e0 01 3e
       -0.24747144 0.36297455 0.24346001 0.12683448
0002a0 f0 3d 89 be 78 06 db 3d 03 65 d8 bd 4b 7c 08 3e
       -0.26805067 0.10694593 -0.105661415 0.13328664
0002b0 45 4f 78 be 19 46 0f 3e 46 09 67 3d fb dc 36 3d
       -0.24248989 0.13991584 0.05640533 0.044644337
0002c0 bd 5d 76 3d 8f ae ad 3b 4e a4 9a bc 41 be 55 bd
       0.06014799 0.00530035 -0.018877175 -0.052183393
0002d0 b1 b0 10 3e 62 42 7f 3c 14 9c a3 3d e4 69 da ba
       0.14129902 0.015579792 0.07988754 -0.0016663638
0002e0 e7 36 57 bd 75 2a 11 3e 77 c1 d9 bd 29 0a fc bd
       -0.052542593 0.14176352 -0.106326036 -0.123066254
0002f0 37 db 92 bd 44 f3 55 bd b6 c7 80 3c 4a 93 4f bd
       -0.07170718 -0.05223395 0.01572023 -0.050677575
000300 a8 1c ca 3d 35 f8 2d be e8 8c bf 3c cf e7 dc bd
       0.09868747 -0.16989215 0.023382619 -0.107864015
000310 b4 4c 82 3c 29 04 b2 bf 5f 20 18 bd da 94 f8 3d
       0.015905716 -1.390752 -0.037140246 0.12137766
000320 18 0b 90 be 9e 89 0f bd d0 7e f5 bb 88 13 9b 3d
       -0.28133464 -0.03504335 -0.007491924 0.07572085
000330 88 45 c5 bd d0 61 17 3e 92 87 8c 3c 01 e3 5a 3d
       -0.09632403 0.14783406 0.017154489 0.053439144
000340 09 fb bb 3d 0c ed 00 3e ac 27 c0 bd 79 08 97 be
       0.091787405 0.12590426 -0.09382567 -0.29498652
000350 fd 45 0c bd e1 c6 33 3d ee 9d f5 3b 5d 17 9f bd
       -0.034246434 0.043890838 0.0074956333 -0.07768128
000360 8c af f8 bc 84 a1 eb bc c1 2e fa bd b9 da b3 bc
       -0.030357145 -0.02876354 -0.12215949 -0.021954881
000370 17 80 11 be 5d a4 91 be 90 53 08 3e 75 fd 49 3d
       -0.14209019 -0.28445712 0.13313127 0.04931398
000380 95 1c 25 3e 68 b7 94 3e 65 5c a1 3e 90 ba 22 3d
       0.16124184 0.29046178 0.31515804 0.0397287
000390 b2 bf b1 be 38 80 46 3c 3b 11 a4 3e bc 2b 64 bd
       -0.34716564 0.012115531 0.32044396 -0.05570577
0003a0 a6 97 06 3e b7 fe 35 bd ea da 64 bc 40 c8 ba 3c
       0.13143787 -0.044432368 -0.013968209 0.022800565
0003b0 5f b1 8a be 30 cd 7a be af 6f 24 bb 04 48 c2 3e
       -0.27088448 -0.24492335 -0.0025090983 0.3794557
0003c0 65 66 04 3d 61 82 5e be 24 dd 5a 3d 2b cc da bc
       0.032324214 -0.21729423 0.053433552 -0.026708683
0003d0 4e 5f a7 bd 7e 59 b3 bd fd 17 14 3e f7 67 b4 3d
       -0.08172475 -0.08757304 0.14462276 0.08808892
0003e0 3d af 87 bc e1 b8 42 bd a3 c9 38 bb 7c 49 27 bd
       -0.016563052 -0.047539596 -0.0028196357 -0.040841565
0003f0 42 c0 6b 3d 49 cd b8 3d 51 8a ee 39 08 71 a9 bd
       0.0575564 0.0902353 0.0004549795 -0.08273512

fc1.bias f4 [256]
000000 8d ce 90 bc 72 f2 23 be 75 25 5c 3c 72 8a b8 3e
       -0.017676616 -0.16010454 0.013436665 0.36043125
000010 be f4 1b 3d 5d d7 89 be 9c 2f e8 be c5 1d 14 be
       0.0380752 -0.26922122 -0.45348823 -0.14464481
000020 85 55 07 3c dd bb 0e be 43 94 d3 be 42 01 51 be
       0.008260136 -0.13938852 -0.41324052 -0.20410636
000030 5e e7 b7 be 9d e2 ae be 9c c0 b1 3d e1 a5 4e be
       -0.35918707 -0.34157267 0.086793154 -0.20180465
000040 01 10 98 be aa f1 5a bd 37 74 0e bc ad 04 72 bd
       -0.2969971 -0.053453125 -0.0086947 -0.05908649
000050 4a fd 14 3e b3 77 8f 3d 7b a1 7c 3c d8 0c ec be
       0.14549747 0.07005253 0.015419359 -0.4610355
000060 64 69 0f 3d 23 7a 98 be 12 52 2c be 16 6f 71 be
       0.035012618 -0.29780683 -0.16828182 -0.23577532
000070 e8 5d 90 3d 75 69 33 3e f2 10 cf 3d 4a cc 55 be
       0.07049161 0.17520697 0.10110654 -0.20878711
000080 ce 6f 8d be fc 54 0f be 69 55 d7 bd b5 2b f6 3d
       -0.27624363 -0.13997263 -0.105143376 0.12020055
000090 07 a2 04 3e 22 3d 2a bd 79 9f 7b be 8f 94 2a 3e
       0.12952434 -0.041562207 -0.24572553 0.16658233
0000a0 1e 6f a9 be dc 88 cb be e5 24 5e 3d 34 af 35 be
       -0.33092588 -0.39752853 0.054234404 -0.17742616
0000b0 83 81 92 be 7b 67 0d bf 46 84 75 bd 17 ff 91 bd
       -0.28614435 -0.55236024 -0.0599406 -0.07128733
0000c0 49 f6 fa 3c 35 16 bb bd 38 e2 6f be d4 bc 52 bb
       0.030635016 -0.09135095 -0.2342614 -0.0032156007
0000d0 a7 a5 2a 3e 8d 81 43 3c 0f 15 88 be e0 82 ed bd
       0.16664754 0.011932743 -0.26578566 -0.11597228
0000e0 16 a3 27 be 25 96 f9 bd f0 26 8d be 18 30 85 bd
       -0.16370806 -0.12186841 -0.2756877 -0.06503314
0000f0 cb f6 b8 bc 22 77 80 bd 08 08 d6 be 3a 0b a3 bd
       -0.022578618 -0.06272723 -0.41803002 -0.07961126
000100 64 ad 7d be b0 65 c2 be b1 49 b5 be f3 ac a1 3c
       -0.24773175 -0.37968206 -0.35407785 0.019735789
000110 ec 9b 65 bd 85 5e 5c bd 3f 4d 49 be f6 ef fc 3d
       -0.0560569 -0.05380108 -0.19658373 0.123504564
000120 d4 9f eb bd 5b 47 cb bd 9b f7 19 be d0 e8 58 3e
       -0.11505094 -0.09925719 -0.1503586 0.21182561
000130 e2 a6 ac 3e 87 ef 81 be ba 7d 2e be 8b b6 85 be
       0.3372107 -0.25378057 -0.17040148 -0.26115832
000140 2b 61 05 be d6 c8 5c be c6 fe 6c bd 8c 17 14 be
       -0.13025348 -0.21560988 -0.05786016 -0.14462107
000150 d5 69 27 bd 16 48 bf be 23 c5 7a 3d 2b 51 29 be
       -0.040872414 -0.37359685 0.06122316 -0.1653487
000160 02 2a ad bc 7c 6d 6e 3d 24 1d 37 bd b7 45 13 be
       -0.021138195 0.05820988 -0.044705525 -0.14382063
000170 c5 49 ae 3d 53 4e 05 bf d1 da b6 be d1 80 7d be
       0.08510164 -0.5207264 -0.3571382 -0.24756171
000180 8e 4d e8 3d ec b6 c4 bd d8 b5 62 3e 80 5c ee be
       0.113429174 -0.09605202 0.2213968 -0.46554947
000190 4b 31 dd bd f1 02 b0 be bf 99 b3 3d 48 8d 93 3d
       -0.108004175 -0.34377244 0.08769559 0.07204682
0001a0 14 75 cc be b4 f2 0b be 7a c2 6b be 41 5a bb bd
       -0.39933074 -0.13666803 -0.23023406 -0.09148074
0001b0 e0 f0 e8 bd f3 6b 63 be 38 57 3a 3c 4b b4 c9 3e
       -0.11374068 -0.22209148 0.011373334 0.39395365
0001c0 7d dd d2 be 49 7c e5 be 71 f7 81 be a0 a2 2e be
       -0.41184607 -0.44821385 -0.25384095 -0.17054224
0001d0 e2 44 43 be 62 86 a0 be 7d 12 0f be 69 ef bd be
       -0.19069245 -0.31352526 -0.13971896 -0.37096718
0001e0 92 fd 35 3d ec fc d7 bd 44 f5 78 be 47 47 a1 be
       0.044431277 -0.10546288 -0.24312311 -0.31499693
0001f0 28 e8 4f bc c4 04 38 3e a1 82 2d be b9 e1 14 be
       -0.012689628 0.17970568 -0.16944362 -0.14539231
000200 ed ad dd 3d 55 36 16 be db ab 94 be 52 22 82 be
       0.10824189 -0.14669164 -0.29037365 -0.2541681
000210 f3 80 0e be 66 5b a9 bd 8f 04 b1 3d 46 c3 98 3d
       -0.13916378 -0.08269386 0.086434476 0.074591205
000220 32 48 ae be 28 cf 84 bd 3d 86 ce be 83 e7 b9 be
       -0.34039456 -0.064848244 -0.4033679 -0.36309442
000230 c7 46 aa bd 3c 22 99 be 38 12 3c be 5d fc a5 be
       -0.08314281 -0.2990893 -0.18366325 -0.324191
000240 ac e3 03 3e 7b 4a fc be 48 d1 7e be 33 d9 ad be
       0.12879819 -0.49275574 -0.24884522 -0.33954772
000250 6c 8c 33 be a1 85 00 be b5 d5 40 bd 7b ca 1c be
       -0.17534035 -0.12550975 -0.047078807 -0.15311615
000260 2e 59 8d bd c9 21 ff 3d 6f 2c da bd e9 ee f3 be
       -0.06901775 0.12457616 -0.10653006 -0.4764321
000270 47 d8 a8 3d cc e7 47 be 24 3c 6b be 8c ff c5 be
       0.08244377 -0.19522017 -0.2297216 -0.3867153
000280 1a 8e 11 bd d8 2e 19 3b 9f a9 d9 bc 22 9a 90 bd
       -0.03553591 0.0023373868 -0.02657014 -0.070606485
000290 f7 b4 13 3e e9 b4 36 be 7b 51 96 be f2 c2 c4 bd
       0.14424501 -0.17842449 -0.2935904 -0.09607495
0002a0 31 e2 bf be c4 26 17 3e 4c b8 7f be f2 45 62 be
       -0.37477258 0.14760882 -0.24972647 -0.22096995
0002b0 98 06 c0 3c 74 61 c6 3c 03 02 3a be 8f c4 4b 3e
       0.023440644 0.024216391 -0.1816483 0.198992
0002c0 59 d9 d7 3d 56 62 ef bd dd 62 f7 3d 65 37 84 be
       0.10539503 -0.11688678 0.120794035 -0.25823513
0002d0 77 e3 78 be 39 6f b0 bd 89 e0 85 be 73 8c 16 be
       -0.24305521 -0.08614964 -0.2614787 -0.14702015
0002e0 3c 81 0b be 1e da b3 bc a0 c3 46 be 6d 67 fe bc
       -0.13623518 -0.021954592 -0.19410563 -0.031055177
0002f0 40 84 5a bd 24 97 2a 3e 52 1b 0e bf d3 8c b2 bd
       -0.05334878 0.16659218 -0.5551044 -0.08718266
000300 33 46 5c 3d 6e 3c f3 bd 6f 67 0a 3b 3f 37 4d 3e
       0.053777885 -0.118767604 0.002111878 0.20040606
000310 ee a3 54 be 1e 2a a4 bd 0e 7d 29 bd cc 9a 01 be
       -0.20765659 -0.08015846 -0.041379027 -0.12656707
000320 1f 98 81 be d0 ab 48 3e f5 bc 2d be 8e 60 52 be
       -0.25311372 0.19596791 -0.16966613 -0.20544645
000330 bd 36 aa be 38 55 77 3d 1b 57 90 3d 6a f7 53 be
       -0.33244887 0.060384005 0.07047864 -0.2069985
000340 b0 1e 40 3d 20 82 81 be c3 15 46 3e 07 70 14 be
       0.046904266 -0.2529459 0.19344239 -0.1449586
000350 9a d5 aa bd ba bc 88 bd 2a 10 54 be 59 21 15 3e
       -0.083415225 -0.06676622 -0.20709291 0.14563502
000360 38 2f 21 be 70 c8 67 3e 0d b9 07 be 03 b5 4c 3c
       -0.15740669 0.22635055 -0.13254185 0.012494328
000370 35 86 f2 bd 53 90 b1 be d5 1b c1 be ec 29 0d bf
       -0.11842004 -0.34680423 -0.37716547 -0.5514209
000380 01 72 86 be 3d bf ea be a0 b7 d9 be 74 6b 05 bd
       -0.26258853 -0.45849028 -0.42522907 -0.03257318
000390 a2 25 32 be 83 70 94 bc 8a d6 01 bd 02 db a8 3d
       -0.17397168 -0.018120056 -0.03169874 0.082448974
0003a0 df 6a 1b bf 33 f3 9b be d9 db db 3e b0 67 a8 bd
       -0.6070995 -0.30458984 0.42941168 -0.08222902
0003b0 46 db 1d bf 06 10 a9 be a8 b8 fa 3d e2 55 be bd
       -0.6166271 -0.33020037 0.12242252 -0.092937246
0003c0 de c8 27 3c 7f ea 0c bf f2 d8 9d bd 57 c2 8a be
       0.010240762 -0.5504531 -0.07707395 -0.27101395
0003d0 ff 5f d9 3d 53 74 3d be b4 f3 d2 bc 8a 19 85 3e
       0.10614013 -0.18501405 -0.025750972 0.25996047
0003e0 f6 c2 68 3d 8e 6d 93 be c5 1f 10 bc 22 d7 32 be
       0.056826554 -0.2879452 -0.008796637 -0.17464879
0003f0 71 d9 21 be 0f 89 65 be 5f cd ba bd 34 db 0c be
       -0.15805604 -0.22415565 -0.09121203 -0.13755494

fc2.weight f4 [128, 256]
000000 6b bb 55 bf 92 76 70 bb 6e 39 0d be 5a f6 62 be
       -0.834891 -0.0036691767 -0.13791439 -0.22164288
000010 1e 06 5c be 18 82 99 be d9 22 b1 bd d8 43 de 3e
       -0.21486709 -0.29982066 -0.08649225 0.43411136
000020 3f eb 8c bc 78 fb e8 3e d4 86 9a 3b 42 21 92 be
       -0.017202018 0.45504355 0.00471578 -0.28541
000030 65 2b 11 3e 1f b8 be bd f7 de 3f bd 0c 71 e8 be
       0.1417671 -0.09312462 -0.046843495 -0.45398748
000040 bd e5 ce bd f2 01 9f 3d 52 03 a9 be f6 ca 6d 3e
       -0.10102413 0.07764043 -0.33010346 0.23221955
000050 f1 d8 79 be a7 df 3f be 16 c6 69 be 28 83 64 be
       -0.24399163 -0.1873766 -0.2282947 -0.22315657
000060 9e aa f3 be 16 6d 79 3d 50 b6 cc be 8f eb 23 bf
       -0.47591108 0.060895048 -0.39982843 -0.6403131
000070 79 7e d1 be a2 b7 06 3c 59 da 98 3d 0c 09 bf 3e
       -0.40916803 0.008222492 0.074635215 0.3731159
000080 ce 2a 76 bf 3d bc 48 3d 51 7e e3 3e f0 e7 5e be
       -0.96159065 0.049007643 0.4443231 -0.21768165
000090 6e d7 b3 bd c3 44 1a bf 6e 03 6f 3e a9 96 11 bf
       -0.08781324 -0.6026117 0.23341152 -0.56870514
0000a0 94 e5 38 3c d1 f1 8c be 61 5a 2d 3e 11 55 be be
       0.011285204 -0.2752824 0.16929008 -0.37174276
0000b0 3a 0e 28 3e ba 2e a1 3e 24 f4 4f 3e 21 3f 74 3e
       0.16411677 0.31480962 0.20307976 0.23852207
0000c0 ea b4 84 be 9e bb 1f 3e fa 2e a3 3e 8e 73 06 3e
       -0.25919276 0.15598914 0.31871778 0.13130018
0000d0 28 b2 88 3d 98 07 12 bf 3f 66 c4 bd 40 ef ad be
       0.066746056 -0.5704284 -0.095898144 -0.33971596
0000e0 85 8a c2 be 38 56 6b bd 5d 97 86 be 58 5b 98 3d
       -0.37996307 -0.05745527 -0.26287356 0.074392974
0000f0 f1 eb 44 be c6 97 40 3e 34 7b 86 be af 49 86 bd
       -0.1923063 0.18807897 -0.26265872 -0.06557023
000100 2a f8 df 3e 25 6d 83 3d 5a 90 d0 3c 60 28 30 bc
       0.43744022 0.06417302 0.025459457 -0.010751814
000110 b7 c4 d5 be c1 e6 68 3c 57 fb ee bc 05 b3 99 3e
       -0.41751644 0.014215172 -0.029172583 0.30019394
000120 9e d5 84 3e ed 4a 28 bd 9c b2 8f 3e 16 ca 90 be
       0.25944227 -0.04108708 0.28065956 -0.2827918
000130 c9 98 39 3e 92 78 59 be 1f b0 a7 bd 8d 88 03 3f
       0.18124689 -0.212374 -0.08187889 0.51380235
000140 65 92 23 bf 12 08 3c 3e f1 78 98 3e 22 49 65 3d
       -0.63895255 0.18362454 0.2977977 0.055977948
000150 84 5f 2e bc 4d 98 fa 3c 02 c9 05 be f4 41 9f 3e
       -0.01064289 0.0305902 -0.1306496 0.31105006
000160 cf 32 65 bf dc 0e 64 be ce 49 d0 be 62 7a d9 3c
       -0.8953065 -0.22271293 -0.40681309 0.026547614
000170 b4 ac 9e 3d 07 4d ea 3d c5 50 1b bf 02 4d 55 be
       0.07747784 0.11440473 -0.6067012 -0.20830157
000180 c1 76 70 be 10 ff fa 3d bf 19 dd be ab 48 69 be
       -0.23482801 0.122556806 -0.43183705 -0.22781627
000190 eb 03 7e be 21 19 7e 3e 50 1f bb 3e 9f 04 35 bd
       -0.24806182 0.24814273 0.36547327 -0.04419386
0001a0 c4 be fb 3d 07 6a 71 be 44 80 ba 3d b8 b6 8b 3d
       0.12292245 -0.23575602 0.09106496 0.0682196
0001b0 3c a2 f4 be b3 1a c5 3d df fe 4b be 61 55 3a 3e
       -0.47780025 0.09624233 -0.19921444 0.18196632
0001c0 52 f1 0f 3e 3f a4 8a bd 04 89 93 3e d7 e7 f1 bd
       0.140569 -0.06769609 0.28815472 -0.11811798
0001d0 d7 49 51 3e 50 75 7b 3e 09 6f 5f 3e 53 2b 38 bd
       0.20438324 0.2455647 0.218197 -0.044963192
0001e0 e1 8b 37 3e 79 b0 8d 3e f2 ba 8f 3b 44 53 2d 3d
       0.17924453 0.276737 0.0043862993 0.042315736
0001f0 c4 e2 dd bd fe de 1f be 07 d5 86 3d 77 11 92 3d
       -0.10834268 -0.15612409 0.065836005 0.071322374
000200 b3 dc 18 be d5 e8 dc be e5 61 8e be 12 05 4a be
       -0.1492794 -0.43146387 -0.27809063 -0.19728497
000210 9b ad 8e be c9 c2 8f 3e 42 7b da 3d 8a 1a 61 bd
       -0.27866825 0.28078297 0.10668041 -0.05495695
000220 e6 1b 7e bd 5a 41 19 3f 4a 69 c0 3d c3 02 06 3f
       -0.062038325 0.59865344 0.09395082 0.52347964
000230 24 42 cd 3e a6 4b 8a 3e e2 f1 c8 be 03 91 9d 3e
       0.40089524 0.2701084 -0.39247042 0.30774698
000240 c0 9d 7a 3b 35 c4 5f 3e cd 16 b7 3d 1c b0 48 bd
       0.0038241 0.21852191 0.08939896 -0.048996076
000250 4f 9c b6 bd 4f 65 88 3d 12 d6 b6 bd ab 97 08 3d
       -0.08916532 0.06659948 -0.089275494 0.033347767
000260 f4 6a b1 3d 14 ba a4 bc 29 9b 28 3e 65 17 dc bc
       0.08662978 -0.02010826 0.16465439 -0.026866624
000270 9c 06 f4 bc 34 0d b2 be ce 98 70 be ce 2f d0 bd
       -0.029788308 -0.34775698 -0.2349579 -0.10165368
000280 f8 3d 98 be f0 70 2a be ad 1e 22 be 98 53 89 be
       -0.29734778 -0.16644645 -0.15832014 -0.2682159
000290 67 7a 63 3e 85 d7 72 be b4 08 d4 3e 2f 96 da 3d
       0.22214662 -0.23715027 0.4141289 0.106731765
0002a0 a0 d8 93 3e ce d5 93 3e 5e 83 00 be 0c 9c 8d be
       0.2887621 0.28874058 -0.12550113 -0.27658117
0002b0 9a 82 3b be f0 e7 2c bd e7 f6 fa be 86 df 88 3b
       -0.1831154 -0.04221338 -0.49016497 0.0041770367
0002c0 b4 99 06 bf 26 9d 84 be 51 b6 85 bd 09 f5 26 be
       -0.5257828 -0.25901145 -0.06528915 -0.16304411
0002d0 dc 48 6c 3e 14 53 24 be 18 4e 85 be eb e6 f8 be
       0.23074669 -0.16047317 -0.26036143 -0.48613676
0002e0 44 d0 8a 3e 87 f1 7f be 62 8b 52 3e b6 7a b6 be
       0.2711202 -0.24994479 0.20560983 -0.35640496
0002f0 4e 2e d8 be 00 d5 a2 3e 1c af 2d 3e 87 a6 ce 3d
       -0.42222828 0.3180313 0.1696133 0.10090356
000300 fb f3 0e 3e 08 ee c2 bc a3 92 75 3e e2 c5 b7 be
       0.13960259 -0.023795143 0.23981719 -0.3589316
000310 4f 81 35 bc 67 5c db bd 9d 51 93 3d 16 ac c7 3c
       -0.011078193 -0.10710984 0.07193301 0.02437405
000320 4c 1b c6 bd d6 ef 23 be 9e 90 81 3e 9d b0 c4 bd
       -0.09673175 -0.16009459 0.25305647 -0.09603999
000330 4b 5d 08 3d a0 3b 1c be bc 87 0e bf 00 5d 34 bf
       0.033292096 -0.1525712 -0.55675864 -0.70454407
000340 b2 21 06 be 92 23 df bd 48 e5 6b 3e 97 01 7c 3f
       -0.13098791 -0.108954564 0.23036683 0.98439926
000350 78 f4 fd 3d e5 97 0f 3e 70 16 1f be 2e 3a 06 bf
       0.12400144 0.14022787 -0.15535903 -0.52432525
000360 59 a7 00 3e 99 19 05 bf ad 16 70 be 5a 29 57 bd
       0.12563838 -0.51992184 -0.2344615 -0.05252967
000370 ed 86 46 3d 8e 9f d4 bd 37 18 82 3d 18 4a 48 be
       0.04846852 -0.10381995 0.06352275 -0.19559515
000380 b1 36 b7 3e 55 ad f5 be 7f 08 98 3c 9f 28 06 be
       0.35783914 -0.47983804 0.018558739 -0.13101433
000390 6a df 45 be b1 1a b8 be 25 e0 01 3c 98 5a bd be
       -0.19323507 -0.35957864 0.007926975 -0.3698318
0003a0 32 df 19 be bf 59 62 3e c7 cd d4 bd d4 a4 9e be
       -0.15026549 0.22104548 -0.103908114 -0.3098513
0003b0 d2 40 9e 3e 8e aa 7a be 82 13 d0 be b7 dc ea 3d
       0.3090883 -0.24479124 -0.40639883 0.11467879
0003c0 20 43 0f bf c4 f8 ad bd fe 8a a1 be c1 00 1f 3e
       -0.559618 -0.08494714 -0.31551355 0.15527631
0003d0 46 21 fd bd 6b e1 b8 3d 11 ee eb be aa 72 41 bf
       -0.12359862 0.0902737 -0.46080068 -0.7556559
0003e0 a6 3d f0 3d 29 ee d8 bd b8 d4 de bd 8b e9 18 3e
       0.117305085 -0.105923004 -0.10880417 0.1493284
0003f0 95 17 02 bf fc 1d c8 bc b5 bf cb bd f1 23 1c be
       -0.50817233 -0.02442836 -0.099486746 -0.15248086

fc2.bias f4 [128]
000000 40 24 ab be 1e f1 bb bd b8 aa dd bd a4 d6 80 bd
       -0.33426094 -0.09176849 -0.10823578 -0.062909395
000010 cc 63 ea bb 18 42 bc bd 12 95 43 bd 00 e2 1d be
       -0.00715301 -0.09192294 -0.047749586 -0.15418243
000020 e3 e7 cd 3b df 04 e4 bd 48 80 64 3d 46 7a d5 be
       0.0062837466 -0.111337416 0.0557864 -0.4169485
000030 a9 9f 3a bd e3 5c 57 be 59 1d d2 bd 67 a3 02 be
       -0.04556242 -0.21031527 -0.10259504 -0.12757646
000040 54 c6 a7 3c 1a be 24 3d 6a a4 7a bd 19 92 a2 bb
       0.020480312 0.040220357 -0.061191954 -0.004961264
000050 ff 38 02 be 7c 14 35 be e6 fc 96 bd ba ad 4b bd
       -0.12717055 -0.17683595 -0.07372455 -0.049726225
000060 0d 57 ac bd 1c 49 88 be 0a 36 09 bd 32 91 38 bd
       -0.08415041 -0.26618278 -0.0334988 -0.045060344
000070 c8 37 a8 3d fe 4a aa bd 1c f0 1d be 06 35 e9 bd
       0.082137644 -0.08315085 -0.15423626 -0.113870665
000080 3c c9 25 bd 21 a1 26 bd 9f cb 0c bd 9e 19 b0 3d
       -0.040475115 -0.04068101 -0.034373876 0.08598636
000090 29 0b c4 3d 76 5a 6d bc 02 d9 95 3d 7b a8 d8 be
       0.09572441 -0.0144869 0.073167816 -0.4231604
0000a0 8b 47 e2 3d 91 15 0b 3c a9 7a 0b be 4d cf 1e be
       0.11048802 0.008489029 -0.1362101 -0.15508766
0000b0 14 4e a6 be 36 f5 a0 3d 3b cb a7 3c 92 11 8a bd
       -0.32481444 0.0785927 0.02048265 -0.067416325
0000c0 cc de 9b bc b1 95 a3 be 36 95 57 be 10 c1 8e bb
       -0.019027136 -0.31950143 -0.21053013 -0.004356511
0000d0 da 8e a6 3d b9 cf c9 3c f0 01 14 3e b5 8f e6 3d
       0.081327155 0.024635183 0.14453864 0.11257879
0000e0 78 71 1b bd 6d 14 03 3e 54 74 8c bd 85 d8 52 be
       -0.03795001 0.1280076 -0.06858125 -0.20590408
0000f0 54 2c 1f 3d 73 78 27 bd 0f 9d 21 be e5 de 04 3e
       0.038860634 -0.040886354 -0.1578257 0.12975653
000100 60 12 24 bc bc c1 c2 3c 34 bd 36 bd e3 de 7e 3d
       -0.010014147 0.02377402 -0.044614032 0.06222428
000110 ce 81 28 be b4 94 23 be 10 23 6e be 5d 8a 09 3e
       -0.16455767 -0.15974694 -0.23255563 0.13431688
000120 f8 cb d2 bd fc 72 39 ba d7 9c 5e 3c 9d 9a 38 3e
       -0.1029281 -0.0007074324 0.013587198 0.1802773
000130 ab a8 8b bd f2 8d 4f bc d6 f8 85 3d 87 cd 7b 3e
       -0.0681928 -0.01266812 0.06541602 0.24590121
000140 6c a6 39 be 02 6a fb 3a 0e 81 a1 3d 13 88 c5 bc
       -0.18129891 0.0019181373 0.07885943 -0.024112737
000150 c9 47 56 be 27 b0 d1 bc e0 92 0d 3e 60 02 38 bd
       -0.20925821 -0.025596691 0.1382556 -0.04492414
000160 33 10 c5 3d 0f 43 17 be 23 d6 2c 3e e2 93 49 be
       0.096222304 -0.14771675 0.16878562 -0.19685319
000170 31 7c 8d 3d f2 b2 19 bc eb ba 0d be e8 30 d5 bd
       0.06908453 -0.009381043 -0.13840835 -0.10409719
000180 4c 43 c0 3d be d1 f4 3d f5 45 be 3d 9b a5 a6 bd
       0.09387836 0.11954068 0.09290687 -0.081370555
000190 ac 8d f9 3d 2c 0f 8d bd dc 87 b2 bd bc 9e 38 be
       0.12185225 -0.068876594 -0.08717319 -0.18029302
0001a0 15 84 07 3d 2e 04 3c bd 91 23 43 bd 0f e8 77 3d
       0.033084948 -0.045902424 -0.04764134 0.060524043
0001b0 f4 89 35 3e 85 07 f4 bd 60 00 4f be 8d 70 21 be
       0.17728406 -0.11915497 -0.20214987 -0.15765591
0001c0 c0 a6 9d 3d 0e 47 ad bd 3a b7 04 be 8a 88 7a bc
       0.07697821 -0.08460818 -0.1296052 -0.0152913425
0001d0 70 ed 4f ba 00 ec 1a be 74 3c 96 bd de 4f 2c bb
       -0.0007931804 -0.1512909 -0.07335749 -0.0026292722
0001e0 35 bf 38 bd 23 b3 f6 bd ed 0b a7 3d 60 2f 42 be
       -0.045104224 -0.12045886 0.081565715 -0.18963385
0001f0 c0 88 6c be df 0f 14 be d9 ec 89 3d 28 9f a4 be
       -0.23099041 -0.1445918 0.06734628 -0.32152677

fc3.weight f4 [4, 128]
000000 98 35 0d 3e a5 16 50 be 65 db 6e bd 86 1d 37 bd
       0.13789976 -0.20321138 -0.0583147 -0.04470589
000010 c7 66 56 3e 34 21 0e be ff 32 05 3d 4c 46 74 3c
       0.20937644 -0.13879853 0.032519337 0.014909338
000020 ba e3 8e 3d e6 de 04 be 1f 9c 5a be 60 51 45 bf
       0.06977029 -0.12975654 -0.21348618 -0.77077293
000030 b1 06 93 3c 9e 7b 24 3e 51 31 37 be 19 9e ab 3e
       0.017947527 0.16062781 -0.17889906 0.33519056
000040 8f ba 5d bc 43 86 51 3e 2b 1e b4 be a7 c7 c0 3d
       -0.013533249 0.20461373 -0.35179266 0.09413081
000050 a2 2c ed bc 8a 4c ab be 89 83 bf be 12 76 14 3e
       -0.028951947 -0.33456832 -0.3740504 0.14498165
000060 fc 70 4b 3d c0 61 c3 3e bc 8c 6d 3c d7 11 cc be
       0.049668297 0.38160515 0.014498886 -0.3985736
000070 42 8e b7 3d 8f ac 14 be ff 1b 0a 3f 34 97 20 3e
       0.089626804 -0.14518951 0.5394897 0.1568268
000080 d5 65 0f be 84 0c 8e 3d e0 17 81 3d 78 85 0b 3e
       -0.1400369 0.06935981 0.06303382 0.13625133
000090 7a 11 90 3d 62 21 d9 bd 04 c7 f6 bd 5b a4 3b 3f
       0.070345834 -0.106020704 -0.12049678 0.7329766
0000a0 9d 2f 51 bd 41 9e 3a bd af 25 58 bd a7 2c 3a 3d
       -0.0510708 -0.04556108 -0.052770313 0.04545274
0000b0 db b9 31 3e bd ad 27 bd 44 6d a4 bc e3 f0 c7 bc
       0.17356054 -0.040937174 -0.020071633 -0.024406856
0000c0 9f a8 cb ba ff df d9 be 5f 1b ff bf 82 f9 8c 3d
       -0.0015537924 -0.42553708 -1.9930228 0.06883527
0000d0 9e 2e be 3c 63 e2 2c bd 8f 28 11 be 17 88 a9 3e
       0.023215588 -0.042208087 -0.14175628 0.3311164
0000e0 cb 6c 78 3e 96 bd 4d be b1 ef b1 be 64 fd 56 be
       0.24260251 -0.20091853 -0.34753183 -0.20995098
0000f0 02 7c 7d be 2f 64 0c bf 30 67 96 3e 53 49 f6 3e
       -0.24754336 -0.5484037 0.293756 0.48102817
000100 a1 3a e5 3d 6a 6c c3 be 61 88 96 bc e6 5d d5 39
       0.11192823 -0.3816865 -0.018375577 0.00040696486
000110 93 a7 4d 3c b4 06 c1 be 8d 04 3d 3c f7 85 95 3d
       0.01255216 -0.37700427 0.0115367295 0.073009424
000120 1b 5c 29 3e 22 60 4d 3e 83 c4 27 3e a5 22 91 3e
       0.16539042 0.20056203 0.16383557 0.28346744
000130 55 e5 2c 3f 0d 38 a7 bd 4b d6 34 ba 52 d0 5f 3e
       0.6753743 -0.08164988 -0.0006898387 0.21856812
000140 3f 11 53 bd a0 15 4e 3d a4 d3 76 bd 94 95 07 be
       -0.05153012 0.050313592 -0.06026043 -0.13240653
000150 42 d1 fb 3d 63 05 49 be 03 fd f8 bd 56 d2 f0 bd
       0.12295772 -0.19630961 -0.12157633 -0.117588684
000160 a0 12 58 bf 45 31 58 be 2d f1 6d be be 1f 83 bf
       -0.8440342 -0.21112545 -0.23236533 -1.0244062
000170 89 25 1b 3e 77 3c 6f be b3 53 56 bd c8 55 63 bd
       0.15151037 -0.2336291 -0.052325916 -0.05550173
000180 66 a0 5e 3e be 58 35 3d b8 87 d6 3c 99 01 ca 3c
       0.21740875 0.044274084 0.026187763 0.024658965
000190 7b 7d 48 3e fe dc 47 bb 27 04 5d 3e 8f 98 1b 3e
       0.19579117 -0.0030496712 0.21583615 0.15194915
0001a0 1a 50 bb be aa 04 c9 3d 5b 8b 86 3e 03 9c 96 3e
       -0.3658455 0.09815343 0.26278195 0.29415902
0001b0 cc 37 5d 3e a0 33 d1 be f6 f9 14 3e d6 38 63 3d
       0.21603316 -0.408597 0.14548478 0.055474125
0001c0 4e 37 7d 3c 25 6c ed 3c 2a 0a bb 3c 67 02 b0 be
       0.01545508 0.028982231 0.022831995 -0.34376833
0001d0 8a b7 b0 bb f7 0a 15 3f 77 45 fc 3e 52 01 fa 3e
       -0.0053929733 0.58219856 0.49271747 0.48829132
0001e0 11 de c7 bd 9c 5c 0f 3e 23 34 86 3e 7c ae 63 bf
       -0.09759153 0.14000171 0.26211652 -0.8893812
0001f0 bd 9e f4 bd c5 d5 1e bf 63 82 d2 bc 1e a3 2d bf
       -0.119443394 -0.62044936 -0.025696939 -0.6782702
000200 c8 2e a5 be 39 3c e7 3e f7 a0 59 3f c0 4d 8c 3e
       -0.32262254 0.45163134 0.8501124 0.2740307
000210 81 53 e4 3e 71 cb 24 bf b1 70 0b bf c5 5f 59 3c
       0.44594958 -0.64372927 -0.5446883 0.013267462
000220 f3 c5 41 3f c0 b9 08 3d 7b ce a1 bf 41 dc e6 be
       0.7569267 0.03338027 -1.2641138 -0.45089915
000230 91 fd b2 3d 1f 29 86 3f dd 20 ed 3e 85 28 0e bf
       0.0873977 1.0481299 0.46314135 -0.5553058
000240 12 0e fd be 5e f9 b8 bb 3a f4 08 bf d2 1f bd 3e
       -0.49424797 -0.0056449613 -0.5349766 0.3693834
000250 9c 70 22 3e d2 24 3b bf 3a 5f 4d 3d 35 bc 62 3e
       0.1586327 -0.7310306 0.050139643 0.22142108
000260 8e 59 4b 3e 21 fd 4d bf 6a 78 28 be 94 9f 9b be
       0.19858381 -0.8046437 -0.16452184 -0.30395186
000270 40 0f c8 3e 02 90 a7 3e c8 d8 bf 3d 02 16 89 be
       0.39074135 0.32727057 0.093675196 -0.26774603
000280 40 32 b6 be 13 9a 03 be 64 7f b7 be d7 c3 11 3f
       -0.35585213 -0.12851743 -0.3583938 0.5693945
000290 61 ac 8e 3e 5b 3c b3 3d 76 01 1e 3f 5a 8a c3 3d
       0.2786589 0.08751746 0.6172098 0.09547873
0002a0 b4 09 5a bd de 21 31 bf 77 14 64 be 9a 68 90 3c
       -0.05323191 -0.691923 -0.22273432 0.017628003
0002b0 e4 09 6b 3e ab 32 29 3f 11 bc f4 bc 66 44 02 3e
       0.22952992 0.6609294 -0.029874833 0.12721404
0002c0 7f 59 81 be eb 93 93 bf 63 04 43 be db 17 06 bf
       -0.25263593 -1.1529516 -0.19044642 -0.5238015
0002d0 01 08 ba 3e aa 69 2d bf 0f d5 99 3e e6 2a 8e 3c
       0.36334231 -0.67739356 0.30045363 0.01735444
0002e0 26 af 6b 3e 97 c0 80 3e 78 24 55 be 1a 10 4e 3f
       0.23016033 0.25146934 -0.20814693 0.8049332
0002f0 38 9d 99 be e3 d6 5b bf 38 de 71 3b be bf a5 be
       -0.3000276 -0.85874766 0.0036906134 -0.3237285
000300 28 71 21 3f e3 af 0d bf fa 2b 72 be cd 78 79 be
       0.6306329 -0.55346507 -0.23649588 -0.24362488
000310 85 f7 6b bc 80 e2 22 be d2 14 58 3f e3 30 ba bd
       -0.014402275 -0.15906715 0.8440677 -0.09091356
000320 35 83 f5 3d 08 43 8b be 02 21 aa 3d f6 51 a5 3c
       0.119879164 -0.27199578 0.08307077 0.020180684
000330 a4 9f a7 3e c1 b9 ac be b3 41 34 3e 2c 39 ee 3e
       0.32738984 -0.3373547 0.17603187 0.46527994
000340 23 b4 7c 3c 51 3f 0c bd 3d 5a c1 be e4 13 b9 ba
       0.015423807 -0.03424007 -0.3776416 -0.0014120308
000350 75 dc a4 bd e1 68 88 3e 2b 07 a5 3e d5 62 59 bd
       -0.08049861 0.26642516 0.3223203 -0.05307277
000360 3c 30 2f 3f c8 03 ac be 5c bc b4 be 89 64 05 3f
       0.68432975 -0.33596635 -0.35299957 0.5210653
000370 e6 e2 64 3d a8 83 01 3d fe 97 2e 3d e6 db 95 bf
       0.05588045 0.031619698 0.04262542 -1.1707733
000380 e6 b6 d1 3e 86 43 0a 3d 60 59 94 be 8f f0 78 3e
       0.40959853 0.0337558 -0.28974438 0.24310516
000390 6d 73 46 be 58 f0 56 3f 5e bc 2e 3e 5c de 95 3e
       -0.19379969 0.83960485 0.17064044 0.2927121
0003a0 a0 c2 71 be 57 72 bc 3e 04 ae 2e 3f dc 38 1f 3e
       -0.236094 0.36805984 0.68234277 0.15549034
0003b0 a3 61 de 3e 73 29 2c 3e 92 15 99 bd 45 01 0b bf
       0.43433866 0.16812687 -0.07474817 -0.5429881
0003c0 4a c4 48 3f 77 f7 08 bf 01 17 f6 3e 13 cb 3c bf
       0.78424513 -0.535026 0.48064426 -0.73747367
0003d0 5f 8d eb be cb 06 fb 3e 5f 66 b2 bc 94 1f 37 be
       -0.46006295 0.4902862 -0.02177733 -0.1788314
0003e0 82 2e 69 bf 6a 9e d6 3d 0e af 8c 3e fe c6 b7 3e
       -0.9108659 0.10479434 0.27477306 0.35894006
0003f0 c0 86 9f be 0e 51 8b bd 63 ee ae 3e 42 7d 58 be
       -0.31157494 -0.06802569 0.3416625 -0.21141532

fc3.bias f4 [4]
000000 5f 0e 25 3e 32 d2 75 3e f8 49 da 3d ed 23 a3 bc
       0.16118763 0.24005964 0.1065864 -0.019914592
