DDPG/src/models/checkpoint_critic.pth (torch_old, 169951 bytes, 5 tensors)

fc1.weight f4 [256, 33]
000000 d7 22 ea 3c 09 e6 08 be f0 e7 63 be 5f cf b7 bb
       0.028581066 -0.13369001 -0.22256446 -0.0056094374
000010 32 7f 9b bc 97 1b a1 bc e8 38 1f 3c c1 01 56 bc
       -0.01898155 -0.019666476 0.009718157 -0.013061942
000020 98 3f 56 3e 1f 56 c9 3d a2 51 01 bc 77 5d 8a bd
       0.20922697 0.098308794 -0.007892998 -0.06756108
000030 ee 5f 00 bd 93 0e dd 3d 52 65 e6 3d 09 c7 64 3d
       -0.031341486 0.107937954 0.11249794 0.055853877
000040 4e 3c f1 3b 23 85 93 bc f7 ca b9 3d b0 1e 03 bd
       0.007361925 -0.01800782 0.090719156 -0.032011688
000050 89 79 55 bc ca ea 99 3d 33 43 d7 bb 00 cd 57 3c
       -0.0130294645 0.075154856 -0.00656929 0.013171434
000060 cb 20 cc 3d 6e 24 f9 3c 53 84 a8 bd e0 b2 84 bd
       0.09967192 0.030412879 -0.08228364 -0.0647943
000070 0a 3f 2d 3d 80 6a 4e bd fa d3 6a 3b be 99 25 3d
       0.042296447 -0.050394535 0.0035831914 0.040429823
000080 30 fb ad bd f1 66 95 ba 5c 1e f5 bc e7 f5 fd 3c
       -0.08495176 -0.0011398477 -0.029921703 0.031001044
000090 a4 93 d2 bc 44 56 47 bd ba a2 08 bd bb 62 80 3d
       -0.025705166 -0.048666254 -0.033358313 0.06268831
0000a0 99 fb ab bc 59 79 c8 3d 12 92 0a bd ad bd 8b bc
       -0.020993995 0.0978877 -0.03383071 -0.017058218
0000b0 b3 ad 8e 3c 8a d0 ad 3b 94 24 ae 3b 59 3a 73 3d
       0.01741681 0.005304401 0.005314419 0.059381817
0000c0 cf 4a 6a 3a fe cb bd bc 83 be 8d bc f8 db a6 3d
       0.0008937539 -0.02316856 -0.017302757 0.081474245
0000d0 ad 28 f4 bb 87 75 3d bc f7 40 99 3c 66 3d 06 3b
       -0.007451138 -0.011563665 0.018707735 0.0020483374
0000e0 fa 37 f2 bd 72 81 82 3c e4 25 1d 3d 0e 89 12 be
       -0.11827083 0.015930865 0.038366213 -0.14310095
0000f0 c9 45 85 be 1c da 83 3c 30 f6 a3 3c 75 28 7c 3e
       -0.26029804 0.016095214 0.020014852 0.24624808
000100 a0 9a 9d 3b f2 00 31 be 18 d3 af 3d 53 6e 61 bc
       0.0048096925 -0.17285517 0.08585185 -0.0137592135
000110 90 c7 f1 bc 6d fd fb bb 62 99 3a bd a8 16 5f be
       -0.029514104 -0.007690123 -0.045556433 -0.21785986
000120 e7 de 23 3d 3a 3d c6 bc 29 e3 ad 3b 90 a8 53 3d
       0.040007498 -0.024199117 0.0053066206 0.051674426
000130 52 7a 6a 3d 73 85 15 bd 74 e3 c2 ba e9 a3 7e bc
       0.05724556 -0.03650422 -0.0014868812 -0.015542009
000140 8b 36 a6 3c aa 35 93 bc 6e a5 6b 3d 6e 63 f1 3d
       0.02028968 -0.017969925 0.057530813 0.11786543
000150 22 6a 5b 3d b8 fc b8 bd 9b ae af bb 24 09 3a 3d
       0.053568013 -0.09032577 -0.0053613908 0.045418873
000160 d1 8e 4d 3c c6 e6 06 bd 96 e3 90 bc 33 27 dd 3c
       0.012546257 -0.032934926 -0.017686646 0.02699623
000170 0f 4f ad bc fa 87 79 3e 33 d6 07 3e 40 2e 51 bb
       -0.021155862 0.24368277 0.13265304 -0.0031918436
000180 ba c0 34 be 1e 99 5e bd d5 e5 65 3f 2b 55 28 3e
       -0.17651644 -0.054345243 0.8980382 0.16438739
000190 8b 70 ce 3d f2 58 e8 bd 1a d5 8d bc 4f ec ce bd
       0.100800596 -0.1134509 -0.017313529 -0.10103666
0001a0 33 2a c1 3d aa cb 29 3e 41 34 03 3d 6b 80 47 3e
       0.09431877 0.16581598 0.032032255 0.19482581
0001b0 de 22 17 be 04 72 9e 3d a0 c5 b3 bc 11 8e 1b 3c
       -0.14759395 0.077365905 -0.02194482 0.0094943205
0001c0 33 3e 3f be e3 5b e6 bd 92 33 b1 3d 40 f6 50 bd
       -0.18676071 -0.11247995 0.086524144 -0.051016092
0001d0 ec 29 12 bd 7f 1f 48 3d b3 78 43 bc f2 c1 05 3c
       -0.03568451 0.048858162 -0.011930632 0.008163916
0001e0 c4 e5 d4 bc 76 4c 02 bd 8c 87 bd bd 99 16 93 3b
       -0.025988467 -0.0318112 -0.09254369 0.004488778
0001f0 8a 3e 9e 3d d9 d5 99 3d bf 68 5d 3e 05 e9 89 bd
       0.07726772 0.07511491 0.21621989 -0.06733898
000200 b8 a0 ca bc 36 1c e8 bd 80 c6 33 bc f3 84 03 3f
       -0.02473484 -0.11333506 -0.010972619 0.5137474
000210 be 0d 26 3d d2 f2 85 bd 91 85 44 bd 73 94 2a bd
       0.04054045 -0.06540455 -0.04797894 -0.04164548
000220 cf 90 4c 3c 4d 44 8a 3d f4 4d a3 bd 23 41 69 bc
       0.012485697 0.067513086 -0.07973853 -0.014236721
000230 89 28 83 3e 1d 4a ab 3e e1 94 3a be 5a 08 69 bc
       0.25616863 0.3345498 -0.18220855 -0.014223183
000240 61 3e 56 3d bc 4e bd bd 1d dd a5 3d c0 fc 1f 3d
       0.052305583 -0.09243533 0.08098815 0.0390594
000250 d8 f3 4b 3d ca 4f 2f bd 73 8c 9e bd 7a 6f f2 3d
       0.049793094 -0.042800702 -0.07741632 0.11837669
000260 7d ea 41 bb ba 44 ab 3c 8a 5b 71 3c b9 68 5d bc
       -0.0029589229 0.020906795 0.014731297 -0.013513737
000270 f8 44 48 3a 54 80 ba 3d d3 eb 96 3d 97 16 38 3e
       0.00076396717 0.09106508 0.07369199 0.17977367
000280 c4 c6 e5 3c 58 d9 92 3c 36 cd 3f be 94 a1 88 3c
       0.02804888 0.017925903 -0.18730626 0.016678609
000290 a6 6d 21 3f 05 55 96 bd d2 a1 82 bd 1e 66 23 3c
       0.63057935 -0.07340435 -0.06378521 0.009973077
0002a0 13 8e dc 3d d0 84 84 3c 0a f0 98 3c ed 31 5c bd
       0.10769286 0.016176611 0.018669147 -0.05375855
0002b0 35 e5 da 3d 7b 5d 15 bd 78 2d 48 3d 6d 66 50 bc
       0.10688249 -0.036466103 0.048871487 -0.012719733
0002c0 58 d5 9e bc c5 09 58 3b cf 3f bb 3d 6c 3b 24 3d
       -0.01938884 0.0032964807 0.0914303 0.04009573
0002d0 d1 c5 ee bc 1d 1d b2 3d e3 8e 3e bd f5 53 6c bd
       -0.02914706 0.08696959 -0.046522986 -0.057697255
0002e0 72 31 9a 3d 06 c5 19 3b 36 bc 7e bb bc 02 87 bb
       0.07528962 0.0023463382 -0.0038869507 -0.004120199
0002f0 87 87 a7 3d 77 8a b8 bc 0b 3b 6f bb 64 67 ff 3c
       0.08180147 -0.022526963 -0.0036503698 0.03117723
000300 65 b4 95 3e 0a 8b e2 bd a4 1a 44 3d e3 a5 93 be
       0.29239193 -0.11061676 0.04787697 -0.288375
000310 c8 80 19 3c 6e 64 5c 3f 24 0a 81 bd ee c1 01 3b
       0.009369083 0.86090744 -0.06300762 0.001979943
000320 29 da 9e 3c 73 51 9b bd 6d 5a a5 be 87 2c 8e bb
       0.019391136 -0.075838946 -0.32295552 -0.004338804
000330 84 a5 25 bd 82 0c 56 bd 9b 9e f8 3d 56 5b a6 3e
       -0.04044105 -0.052258022 0.121396266 0.3249156
000340 c2 c4 09 3d 4a c3 5c 3d 39 62 82 3d d1 22 ec 3d
       0.03363491 0.05389718 0.06366391 0.11530078
000350 a4 ac 38 3d 84 d8 16 3e ed 3d 48 3d fb d3 4f 3d
       0.045086518 0.14731032 0.048887182 0.05073927
000360 90 79 da 3b 77 08 56 bd b5 d5 7c 3c 01 b7 93 bd
       0.0066673234 -0.052254166 0.015431811 -0.072126396
000370 b8 f6 59 bd 94 db 0a b8 0a 76 3e 3d ba 3e c3 3d
       -0.053213805 -3.3106262e-05 0.04649929 0.095334485
000380 ea 12 7f bd 47 87 21 3e 51 29 59 be 64 81 43 bd
       -0.062273897 0.1577426 -0.21207167 -0.04773082
000390 41 3e 3c be 80 9d be 3a 0d 6e 21 bf dd 11 b5 bd
       -0.18383123 0.0014542788 -0.6305855 -0.08841298
0003a0 b5 2a 26 3b 67 7f cc bd ed 67 31 3d 1a 5a 36 3c
       0.0025355045 -0.099852376 0.043312002 0.01112988
0003b0 71 8b cf bd bb 07 c8 bd 26 98 a3 bd 77 37 70 bd
       -0.10134018 -0.097670995 -0.079880044 -0.058646645
0003c0 e0 f1 cb 3d f4 f0 8c 3d db ed 7e bd c9 1d d6 bc
       0.09958243 0.06881896 -0.062238555 -0.02613725
0003d0 a7 00 9f 3d fb ec d8 3d 9b a9 65 bd ec 3c 58 3d
       0.07763796 0.105920754 -0.05606995 0.052792475
0003e0 10 f7 c3 3d 27 af e4 bd e2 b1 8a 3b bf 75 8d bb
       0.09568608 -0.1116622 0.004232631 -0.004317015
0003f0 ad 7b b8 bb 31 e2 f8 3b 69 42 9a bd 22 05 9d 3c
       -0.0056299777 0.0075953235 -0.07532198 0.019167487

fc1.bias f4 [256]
000000 da 95 cc 3d bd 9b ba 3e 6d 8a 7e be 53 2a 95 bc
       0.099895194 0.36446944 -0.24857493 -0.018208658
000010 d1 45 1d be 3b 2a de be d2 5a 93 be 92 22 6e be
       -0.15358664 -0.43391594 -0.28780228 -0.23255375
000020 4c 29 95 bd 1a be 79 be b3 78 9a bd 91 43 0b be
       -0.072832674 -0.24388924 -0.07542553 -0.13599993
000030 f5 bd 23 be d3 dc 89 be c2 9d 02 bd 9c bd a0 3d
       -0.15990432 -0.26926288 -0.03188873 0.07848665
000040 37 52 93 be 7b 15 94 be cb 3f 09 3f 12 0a 24 be
       -0.28773662 -0.28922638 0.53612965 -0.16019467
000050 74 c5 f0 bd 9b 98 2e bd 88 42 8b be 0d 36 c4 be
       -0.11756411 -0.042626005 -0.27199197 -0.38322487
000060 cd bc 03 bf 0b 48 12 be bd 87 4f be ae ca 84 be
       -0.5145996 -0.14285295 -0.20266624 -0.25935882
000070 a0 fd 96 be 0b 63 b8 bc 1c 82 5e be ca 19 7a be
       -0.29490376 -0.022508165 -0.2172932 -0.244239
000080 5e 5f b3 be 30 df 78 bd b8 01 92 3a 35 b5 24 be
       -0.35033697 -0.060759723 0.0011139428 -0.1608475
000090 d8 67 3f 3d 3b a3 ed 3d 1b 40 c2 be f1 14 60 be
       0.046729892 0.11603399 -0.37939534 -0.21882989
0000a0 2d 45 59 be 13 6a b2 be b6 a3 77 3e 7a 04 99 be
       -0.21217795 -0.34846553 0.24183545 -0.29886228
0000b0 9e 86 aa be 7f 1b 9e be 0b 3d 3a be d2 9d 02 3e
       -0.3330583 -0.30880353 -0.18187349 0.12755516
0000c0 9d 54 b1 bd b2 02 c4 be e3 03 fc bd 17 26 be 3d
       -0.08658717 -0.38283306 -0.12305429 0.09284609
0000d0 10 2c 67 be 4e e5 56 be 8e 73 2c be c7 2e 92 3b
       -0.22575402 -0.2098591 -0.16840956 0.0044611427
0000e0 2b ff 8d be 94 c0 5f be 24 99 1b be c0 11 a1 be
       -0.2773374 -0.21850806 -0.15195137 -0.31458855
0000f0 47 dc e0 be 89 0a f0 bd a7 e6 d9 be bd bb 9a be
       -0.43918058 -0.117207594 -0.42558786 -0.30221358
000100 1e 07 87 be 4b 70 b9 be c6 cb 39 3d ea 15 48 3e
       -0.26372617 -0.36218485 0.04536035 0.1953961
000110 e3 dc 27 be b0 d5 06 3d 81 f4 f0 bd c2 34 b1 3d
       -0.16392855 0.032918632 -0.117653854 0.08652641
000120 36 a7 c1 be a3 49 b5 be ed 72 d6 3b 4a a3 1f 3c
       -0.37822884 -0.35407743 0.006544462 0.009743521
000130 62 3e 75 3e e6 e5 41 be 54 a6 84 bd 71 87 d2 be
       0.23949578 -0.18935356 -0.06477037 -0.4111896
000140 31 96 91 be f4 41 b0 bd c9 31 96 3c 5b 60 8a 3c
       -0.284349 -0.086063296 0.018334286 0.016891649
000150 cc bc a6 bd 1c 06 98 bd d9 04 ad bd ca bb 65 3e
       -0.08141479 -0.0742304 -0.0844819 0.22434917
000160 17 a6 61 be 30 81 b3 be 16 f4 1d 3d 8d a1 9a bd
       -0.22036014 -0.350595 0.038562857 -0.075503446
000170 35 7d 86 be 55 bf 97 bd 30 38 c5 be 81 b7 b5 be
       -0.262674 -0.074095406 -0.3851943 -0.35491565
000180 d6 34 c5 3e a5 8d 08 bf 65 c5 5f 3d a2 8b ba be
       0.38516873 -0.5334113 0.05463161 -0.36434656
000190 d5 6b 78 bd 47 62 36 be f5 e7 87 be 54 f2 eb be
       -0.06064971 -0.17810927 -0.26544157 -0.4608332
0001a0 5d 1d 1a be 34 59 02 3e b8 dc ef be 83 64 55 3d
       -0.15050264 0.12729341 -0.46848083 0.05209781
0001b0 68 8d 32 3d 7d 92 b9 bd 8b 07 75 be 0a 1a 07 be
       0.043591887 -0.090611435 -0.23928659 -0.13193527
0001c0 c1 65 53 be 05 08 4a 3d 45 a7 81 be 39 32 ba be
       -0.20644285 0.049324054 -0.2532293 -0.36366442
0001d0 46 cd 5c bc ed ca 9e be 03 19 72 be 6b 43 28 be
       -0.013476675 -0.31014195 -0.23642354 -0.16431968
0001e0 a4 ff 45 bd b0 6e fc bd 97 8f 3a be 6a 23 a9 be
       -0.0483395 -0.123257995 -0.18218838 -0.3303483
0001f0 fa a4 38 be 9b 2c 6e 3d 95 d9 6e 3e 1a b0 3d 3e
       -0.18031684 0.058148008 0.23325188 0.18524209
000200 ff 16 47 be e5 49 cb be 89 93 85 be 66 a0 9c be
       -0.19442366 -0.39704815 -0.26089123 -0.30591124
000210 0e 67 4f be c0 07 c3 3c fd f8 98 be 20 ef 7d be
       -0.20254156 0.023807406 -0.29877463 -0.2479825
000220 d0 17 8e be 00 3b 0f be 27 88 ce be fb 2f a8 be
       -0.27752542 -0.1398735 -0.4033825 -0.32849106
000230 7f 0b 36 3e d8 2d 41 be a0 13 07 be ef 30 b6 be
       0.17777823 -0.18865144 -0.1319108 -0.35584208
000240 60 32 6a 3e b9 82 08 bf cf b8 c5 3c fe 8a 01 3d
       0.22870779 -0.53324467 0.024135975 0.031626694
000250 70 fb b4 bd 3d cc 49 bc d0 19 4f be c4 91 ed 39
       -0.088370204 -0.012316761 -0.2022469 0.00045312766
000260 74 f9 41 be ba af 38 be 5f ae b1 3b 77 30 8c bd
       -0.18942815 -0.18035784 0.005422398 -0.068451814
000270 f9 5d 1b bd 4a fa db bd a1 dd 02 be 37 3e e4 bd
       -0.037931416 -0.10741098 -0.12779857 -0.11144679
000280 4a c9 ab bd 9b 8e 90 bd e8 76 81 be ce 65 fc be
       -0.08388002 -0.0705845 -0.2528603 -0.4929642
000290 f3 7d 43 be 7a d3 e7 3b f6 45 0b 3f 5e f3 c8 be
       -0.19091015 0.0070747705 0.54403627 -0.39248174
0002a0 e4 72 28 bd b6 7d 1e 3e 33 1d 0f 3b de c3 88 bd
       -0.041125193 0.15477642 0.0021837472 -0.06677984
0002b0 93 59 3e be cc e3 55 bd bd 89 ac bd 16 b5 8d bd
       -0.18588857 -0.052219197 -0.08424709 -0.06919305
0002c0 8d 15 02 be 1d e2 d4 be c8 1a 5c 3e 7a 30 d7 bd
       -0.12703533 -0.4157876 0.21494591 -0.10507293
0002d0 f8 d9 fe bd 37 31 97 bd f9 df 86 be 3d 51 91 be
       -0.12443918 -0.07382434 -0.26342753 -0.28382292
0002e0 25 87 56 be 72 4e a1 be f5 97 98 be c7 13 2a be
       -0.20949991 -0.31505162 -0.29803434 -0.16609107
0002f0 06 d9 6b 3e 3b fd 6d 3e e5 98 21 be 91 fe 40 3b
       0.23032007 0.23241131 -0.15780981 0.0029448608
000300 a7 e1 1c bd 18 5c 4e be 9b 81 88 3e 54 1d 83 be
       -0.038301136 -0.20152318 0.2666138 -0.25608313
000310 98 d6 87 bd 70 8b a3 3c 25 d2 ae be fe 29 b4 be
       -0.066327274 0.01996395 -0.34144703 -0.35188287
000320 5f 7e 9c be ba ac f1 bd f8 af 5b bd 24 b3 a1 bd
       -0.30565163 -0.11800523 -0.053634614 -0.078954965
000330 5e 99 97 be 4c 09 5a 3e d4 ef 88 be 23 a9 2e 3e
       -0.29609197 0.21292609 -0.26745474 0.17056708
000340 d4 55 c2 be 89 2d 4e be e5 d0 b7 3e c6 11 a4 bd
       -0.37956107 -0.20134558 0.3590156 -0.080112025
000350 fd 18 86 3e 4a 5f db be 9d be 88 be 3f 12 e9 bd
       0.2619094 -0.42846137 -0.26707926 -0.11380433
000360 3b d9 56 be 79 20 11 3e 8f 59 ca bd 52 a2 a9 be
       -0.20981304 0.14172544 -0.09880363 -0.33131653
000370 26 16 b0 bd 4a 2f 19 bf 27 ac a8 be ee 23 d6 be
       -0.085979745 -0.5983778 -0.32943842 -0.41824287
000380 14 b1 ec 3e 04 68 d8 be 61 46 db be 25 5e 34 be
       0.4622885 -0.42266858 -0.42827132 -0.17614038
000390 5c d3 88 be 3e 10 31 be c6 43 bb bd 80 52 04 be
       -0.26723754 -0.17291352 -0.09143786 -0.12922096
0003a0 dc 9c 09 bf 66 bc 82 be 39 b7 23 be ce b4 2b bd
       -0.53754973 -0.25534362 -0.15987863 -0.041920476
0003b0 36 1a fe bd e9 74 4a 3e 01 33 03 be c3 0a 22 be
       -0.12407343 0.1977116 -0.12812425 -0.15824418
0003c0 70 de 22 bc 8e df 64 be d2 9c 8e 3d 23 67 4b be
       -0.009940729 -0.22350904 0.06963505 -0.19863562
0003d0 57 5c 63 3e ae 14 87 3d 34 01 86 be 28 0b 54 3e
       0.22203194 0.06595741 -0.26172793 0.20707381
0003e0 40 2e 29 3e dc 48 dc be 02 01 bd 3d 2a 2b c2 be
       0.16521549 -0.43024337 0.09228708 -0.37923557
0003f0 6d 57 86 bd 96 de 65 be 63 7c 7f be d2 0c 38 be
       -0.06559644 -0.22448191 -0.24949794 -0.1797364

fc2.weight f4 [128, 260]
000000 8a 18 41 be d9 54 82 3b 61 a1 45 be 43 32 17 3e
       -0.18857017 0.0039774 -0.19299842 0.14765267
000010 4e 78 a3 3a 4d c9 ce be bf c0 41 bd f9 b2 f6 3d
       0.0012471767 -0.40387955 -0.047302958 0.12045855
000020 64 9d da 3c 46 ea 2b be d0 ad 0d bd 27 d7 3d bc
       0.026686378 -0.16788587 -0.03458959 -0.011586941
000030 71 fe 59 3d a9 c6 88 be 6e 00 91 bd 38 39 ab ba
       0.05322117 -0.26714066 -0.0708016 -0.0013063317
000040 72 52 8f 3d bd 4e b3 3e 90 7c 32 3c e7 ad 8c bd
       0.06998147 0.3502101 0.010893956 -0.06869107
000050 75 5a 21 3e 1c 92 30 3e b0 10 19 bf ab d9 52 be
       0.15757163 0.17243236 -0.5979109 -0.20590846
000060 89 bc 9a be 37 5d c0 bd 11 57 5f 3c 2c b4 18 bf
       -0.30221966 -0.09392779 0.013631598 -0.5964992
000070 67 59 d0 bd 93 b2 83 3d d2 4c ae 3d b8 35 75 3e
       -0.10173302 0.06430545 0.08510746 0.23946273
000080 40 8d ce be 71 02 98 be 19 37 84 3d 9f f1 69 3e
       -0.4034214 -0.29689363 0.064558215 0.22846077
000090 98 12 4b be 5e ca ba bd ce 6e 7f be 8b da 6c 3d
       -0.19831312 -0.0912063 -0.24944612 0.057825606
0000a0 c1 00 9d 3d 26 99 fd bd 7f 52 d1 bb 3d 47 ed bd
       0.076661594 -0.12382726 -0.006388008 -0.11585853
0000b0 e4 ad 14 3e 04 c8 b7 3d 2c 3f 7f 3d a5 da 8c 3a
       0.14519459 0.08973697 0.062316105 0.0010746313
0000c0 f4 e0 ec be 9c a4 23 be 8e 9e 42 3e 4a d0 b6 3d
       -0.46265376 -0.15980762 0.19005796 0.08926447
0000d0 57 75 6b bd 40 a0 93 be 95 70 99 bd cb 9d af 3d
       -0.05748495 -0.288332 -0.074921764 0.085750185
0000e0 f4 e8 9d be 78 56 5e be 38 a9 ad bd 42 0d 4c be
       -0.30841792 -0.21712673 -0.084795415 -0.19926932
0000f0 be 52 95 be cf 7f a7 bd e3 68 80 3d 51 53 55 3d
       -0.2916469 -0.081786744 0.062700056 0.05208141
000100 96 b1 d4 3c a8 d2 fb bd 81 84 1b 3e 9a 2f 6a 3d
       0.025963586 -0.12296039 0.15187265 0.057174303
000110 24 b2 4d 3e 07 fb c4 3b 51 30 c2 be 42 ad 54 be
       0.20087487 0.00601137 -0.37927487 -0.20769218
000120 9a 99 6f bd 79 ed 49 3d 9b d6 45 be 52 5d 64 be
       -0.058496095 0.049298737 -0.19320147 -0.22301224
000130 d9 ee f5 bc ad 3b 6c 3d 4e fc fc 3d 5e bb f9 bd
       -0.030021118 0.0576741 0.12352811 -0.121939406
000140 a0 d0 11 3d 2f bb 87 3e 1e b0 af 3d 57 e1 5c be
       0.03559935 0.26509997 0.085785136 -0.21570335
000150 7f 2f 03 3b f8 06 95 bd d4 8a 31 bf fd cb 96 bd
       0.0020017324 -0.0727672 -0.6935246 -0.073631264
000160 80 b2 fe bd ae 60 4d 3c a2 8e 56 3d fa a8 d5 3d
       -0.1243639 0.012535257 0.05238212 0.1043262
000170 32 89 42 be e1 da 6e bd ba 40 26 3e 98 80 19 3e
       -0.18997648 -0.058314208 0.16235629 0.14990461
000180 cd 04 87 bd 5d 25 7c be 7c f3 6a be b0 80 ce bd
       -0.065927126 -0.24623628 -0.22944444 -0.10083139
000190 78 3e f5 3c 4f 5c e5 be d4 80 01 be 63 2b 9f bc
       0.029937014 -0.44796988 -0.126468 -0.019429868
0001a0 08 74 a1 bc 9d 0c 84 bd ad a2 9f 3d 82 a6 9b 3d
       -0.019708648 -0.06447718 0.077947 0.07600118
0001b0 13 78 9b bd 60 95 ac bc 34 c2 be bc b0 70 31 3d
       -0.07591262 -0.021067321 -0.023285963 0.043320358
0001c0 a1 77 79 be 04 bc cd 3d e1 28 ce 3c 64 8f 13 bd
       -0.24362041 0.10045627 0.025165977 -0.03602542
0001d0 64 a6 b2 bd 6c 0c 85 bc 32 87 b4 3d bf 01 08 3b
       -0.08723143 -0.016241275 0.08814849 0.0020752994
0001e0 08 65 54 3e 73 26 eb bb 0e 89 b0 3c e7 ff 50 3d
       0.20741665 -0.0071762144 0.021549728 0.051025297
0001f0 3f b7 76 be 36 d7 e6 bd 92 1c e6 3a 21 42 29 bd
       -0.2409334 -0.11271517 0.0017556122 -0.04132283
000200 f1 d2 8c be 85 64 e2 bc 28 94 4a bc 99 9d c5 3d
       -0.27504686 -0.027635822 -0.012364425 0.096492
000210 7e 91 bc bd 66 47 94 bd a1 45 88 bd 1a aa 55 3e
       -0.09207438 -0.07240181 -0.06653906 0.2086567
000220 77 01 6b bd 0d eb 85 bc 56 81 3b 3e 26 a6 c1 be
       -0.057374444 -0.016347433 0.18311056 -0.37822074
000230 51 94 35 be f2 cb bd 3e b1 31 c3 be 2d 78 da 3d
       -0.1773236 0.3706966 -0.3812385 0.10667453
000240 04 7c 3e be 81 aa ac bd f9 07 18 be 59 31 09 bd
       -0.18601996 -0.084309585 -0.14846791 -0.033494327
000250 05 c0 e5 3d ea cb 11 3e 4a 3c 3c be c8 42 9d bc
       0.112182654 0.14237943 -0.18382373 -0.019196883
000260 29 83 80 3b 52 9f a3 3e 27 80 48 be be 34 7e 3e
       0.0039218855 0.3195749 -0.19580136 0.24824807
000270 32 57 ba bd 8c 07 9d 3d fd c5 0e bc 70 c5 83 3d
       -0.090986624 0.07667455 -0.008714196 0.064341426
000280 31 6f 64 bc 17 34 1a 3e b7 f7 27 3e c2 f8 7c be
       -0.013942526 0.15058933 0.1640309 -0.24704269
000290 89 7d 5c 3e 87 93 ee 3d de 0b 90 bd 18 99 96 3e
       0.21532263 0.11649232 -0.070335135 0.29413676
0002a0 a1 47 88 be 55 c2 d1 be c9 48 e4 bd cd 55 8f 3a
       -0.2661715 -0.40968576 -0.11146695 0.0010935605
0002b0 7e 01 48 be 60 8e 6b 3e 47 85 34 3d fc 9b 74 3d
       -0.19531819 0.2300353 0.044072416 0.05971907
0002c0 be 81 36 3e 90 2f 3c be 28 ac 08 3d 6b 1b 05 be
       0.1782293 -0.18377519 0.033367306 -0.1299874
0002d0 7c f5 0b 3e 44 bf 37 be 32 7b 86 be c2 6a c9 bd
       0.13667864 -0.17944056 -0.26265866 -0.098348156
0002e0 f0 5a 11 3e f2 80 3a be 38 1f 01 bf 3a b5 9c 3c
       0.14194846 -0.18213251 -0.5043826 0.019129384
0002f0 3f 83 03 3d f1 0c 18 3e e6 ab 54 bd 42 9c 51 be
       0.032107588 0.14848687 -0.051921748 -0.20469764
000300 88 0f ac be ee 41 80 3e 13 6e cd bd e3 a1 28 be
       -0.336056 0.250503 -0.100307606 -0.16468005
000310 65 3d 7e 3e 17 e5 a0 bd 2f 5a 1e bd 0d 86 92 bd
       0.24828108 -0.078561954 -0.038660225 -0.071544744
000320 3e d9 ce be ef 1f 85 3c 00 5c 5e 3d d0 e4 41 3e
       -0.40400118 0.016250579 0.054286957 0.18934941
000330 d0 48 0e be cd ba 96 bd be af 18 be 99 43 33 be
       -0.13894963 -0.07359848 -0.1491079 -0.17506255
000340 a5 d7 05 3e 45 9f 21 3e 48 8e ea bc 98 b0 53 be
       0.13070543 0.15783413 -0.028632298 -0.20672834
000350 85 d1 90 3c b1 be 24 3e 61 41 99 3d 08 f3 82 bc
       0.017678032 0.16088368 0.07483173 -0.015985027
000360 26 1e 89 bc 44 5c 27 be eb c7 42 bd f4 5b 5a bd
       -0.016738009 -0.1634379 -0.047553938 -0.05331035
000370 71 55 88 3c 2c 68 c8 be f6 0a 29 3e 3e 68 a2 be
       0.016642304 -0.39141977 0.16508088 -0.31720155
000380 24 22 a6 bc ed d4 3e be c0 76 f4 bd 38 db f3 bc
       -0.020279951 -0.18635912 -0.11936712 -0.029767618
000390 0d 62 17 3e 56 99 6d be 10 03 d0 3d a7 ba 1e bd
       0.14783497 -0.23203024 0.10156834 -0.038752224
0003a0 25 fb 2c bf 67 c6 42 3e f0 08 53 bd 31 7d e7 bc
       -0.67570716 0.19020997 -0.051522195 -0.028257938
0003b0 5b b6 95 3e 61 d8 28 be f2 9a 70 3d 45 87 19 3d
       0.2924069 -0.16488792 0.058741517 0.03748252
0003c0 be 85 0b 3e 73 96 6a 3d 40 91 1c bd f3 ec 63 3d
       0.13625237 0.057272386 -0.03822446 0.055645894
0003d0 19 ca 93 3e 12 36 37 bd 05 70 be 3d 20 5e 90 bd
       0.28865126 -0.0447293 0.0929871 -0.07049203
0003e0 63 7d 6b bd b4 02 0d 3c 6a 6a a7 bd 7e f2 19 be
       -0.057492625 0.0086066015 -0.08174594 -0.1503391
0003f0 4c 21 39 3e 5d 92 bf 3e 51 9c c8 3c 72 7d ff be
       0.18079108 0.37416354 0.0244886 -0.49900395

fc2.bias f4 [128]
000000 7a 3b aa be d7 32 64 be 9f a0 89 3e 91 74 a0 be
       -0.33248502 -0.22285019 0.26880357 -0.31338933
000010 a9 6c bc 3e de 11 d7 be f2 f3 a8 3e 45 66 f5 3e
       0.3680165 -0.4200582 0.32998616 0.47929588
000020 4f 21 ad 3e df 88 c3 be 97 6a 87 be b1 f9 90 3e
       0.33814475 -0.38190362 -0.2644851 0.283155
000030 e0 29 b3 be ad c6 8c be 88 f4 dc be b6 f7 b7 be
       -0.34992886 -0.27495328 -0.43155313 -0.35931176
000040 4b 2e ce 3e 90 13 7d 3e e6 9b 1e 3e ad 72 53 3e
       0.40269694 0.24714494 0.15489158 0.20649214
000050 0a d4 3f 3f 42 52 fe 3e ff 94 2b be 6c 52 72 be
       0.7493292 0.49672133 -0.16756056 -0.23664254
000060 46 53 d7 3e c6 8a 4d be 0b fb fd 3e f8 25 66 be
       0.4205572 -0.20072469 0.49605593 -0.22475421
000070 ce b0 ca 3e c5 13 c1 be 5a 6c 91 3e 37 32 ca be
       0.39588016 -0.37710395 0.28402978 -0.39491436
000080 1b da e6 3e bd b8 56 be f4 0d 6f be c9 bb 9e be
       0.45088276 -0.2096891 -0.23345166 -0.31002644
000090 61 80 d7 3e 7d 06 8a 3e c7 61 e3 3e 0e 33 70 be
       0.42090133 0.26958075 0.44410536 -0.23456976
0000a0 cf 60 bb 3e 02 1b 00 bf 5d 1b ad 3e eb 67 98 be
       0.36597297 -0.5004121 0.3380994 -0.29766783
0000b0 62 d1 a3 be e6 f0 ba be 7d 3f 51 3e 46 f5 da 3e
       -0.31995684 -0.36511916 0.20434375 0.42765254
0000c0 05 66 a5 3e 95 21 53 be 17 5b 01 3f d6 f3 02 bf
       0.32304397 -0.2061828 0.5052962 -0.51153314
0000d0 fc 51 87 3e 1e 7e 89 be 2c 86 d0 bd d0 ae 77 3e
       0.26429737 -0.26854032 -0.10181841 0.2418778
0000e0 20 6b 22 3f 7e cf 82 be 66 f3 89 be f3 96 a8 be
       0.6344471 -0.2554893 -0.2694351 -0.32927665
0000f0 14 07 97 be c5 3e ca be 8f 16 d3 3e d9 16 39 3f
       -0.29497588 -0.39501014 0.41228148 0.7230049
000100 3f f2 81 be 90 5f c0 3e a8 20 92 3e 80 5d 41 be
       -0.25380132 0.37572908 0.2854054 -0.18883324
000110 e1 9e 92 be 7f df f4 3e 06 94 76 be 59 9b 73 be
       -0.2863684 0.47826764 -0.24079904 -0.23789729
000120 36 fe a0 3e 46 8f 60 3e 18 27 46 be 6d d6 eb 3e
       0.31443948 0.21929654 -0.1935085 0.4606203
000130 ef fb b2 3e ce 39 9d be aa c2 9b 3e 9f 0f 4c 3e
       0.34957835 -0.30708164 0.30421954 0.19927834
000140 76 f2 20 3f 6e ab 1a be de f4 dc be 9b 07 b0 3e
       0.62869966 -0.15104458 -0.4315557 0.34380803
000150 45 35 fa be fc 30 22 3f 73 97 ad 3e 58 03 75 be
       -0.48868766 0.63355994 0.3390461 -0.23927057
000160 0d 65 14 3f 3c 8b de 3e 32 1e cf 3e a2 92 e7 3e
       0.5796669 0.43465602 0.40452725 0.4522906
000170 af 7e dd 3e 36 ca d4 3e 7f 67 dd 3e fb 46 ec 3e
       0.43260714 0.41560525 0.43243024 0.46147904
000180 53 99 a2 be f1 05 e0 be 02 e1 2a 3f 31 16 c1 3e
       -0.31757602 -0.43754533 0.66749585 0.37712243
000190 50 19 a5 3e 55 93 a3 be 4e 67 97 be a4 f7 e1 3e
       0.32245874 -0.31948343 -0.29571003 0.44134247
0001a0 be 8b b4 3e 04 ef 4a be c1 84 6a 3e d4 3d d0 3e
       0.35262865 -0.1981774 0.22902204 0.4067217
0001b0 e6 3b b4 3e 49 9e ae be cc 3f b8 be bb 32 0a be
       0.3520195 -0.34105137 -0.35986173 -0.13495915
0001c0 3d 7d a0 3e ed 54 a5 be bc 7c cf 3e 32 59 70 be
       0.3134555 -0.32291356 0.40524852 -0.23471525
0001d0 62 b3 e1 be 98 19 97 3e 46 13 b1 3e 00 46 ae 3e
       -0.4408217 0.29511714 0.34585017 0.3403778
0001e0 c5 b0 ec 3e 3f a4 c4 3e 54 9d ab 3e 64 dd e0 3e
       0.46228614 0.3840656 0.3351847 0.43918908
0001f0 29 9c b7 be 48 10 c2 3e bb 8c 8d be 6f 8d 43 be
       -0.35861328 0.37903047 -0.2764643 -0.19096921

fc3.weight f4 [1, 128]
000000 75 be 7b be 27 d4 37 be 9e f1 ba 3d f8 11 77 bd
       -0.24584372 -0.17952023 0.09128116 -0.06031987
000010 ed 02 2c 3d d6 61 cd bd 38 7b 03 3d 49 3f 91 3d
       0.041994978 -0.10028426 0.032099932 0.07092149
000020 ef 79 9b 3d 4a 5d 2e bd 3e e9 d7 bd ef 18 bf 3d
       0.07591616 -0.042569436 -0.10542534 0.093309276
000030 97 60 66 bd 89 6e 36 be e6 30 3a bd 3f 6d d6 bd
       -0.05624446 -0.17815603 -0.04545679 -0.10470056
000040 2f f7 af 3d 56 68 23 3e 9f 40 d1 3d 32 60 dc 3d
       0.085920684 0.1595777 0.102174036 0.10760535
000050 eb cc 2c 3e f2 e1 cb 3d 14 22 5c be d8 89 6d bd
       0.16875045 0.09955205 -0.21497375 -0.057992786
000060 46 f5 d1 3d e1 e1 30 bd c3 9f 28 3d a6 9a f4 bd
       0.1025186 -0.043184165 0.041167986 -0.11943559
000070 3c b0 39 3d b7 15 7e bd 36 98 5f 3d be 4a 74 bd
       0.045334086 -0.062032428 0.05458852 -0.059641592
000080 f4 fb 2e 3e 42 ca e8 be 56 9f 86 bd 04 b4 0d be
       0.170883 -0.4546681 -0.0657336 -0.13838202
000090 ab 9d 89 3d bc 6f b1 3d c8 2a a3 3e 1f c7 62 be
       0.06719526 0.0866389 0.31868577 -0.22146271
0000a0 83 5b 46 3c 02 4a ba bd e0 05 8c 3d b2 cf fb bd
       0.012106779 -0.09096147 0.06837058 -0.12295474
0000b0 5d f4 41 bd 48 50 a9 bd bd e7 b7 3d dc 7f 69 3d
       -0.047352184 -0.082672656 0.089797474 0.0570067
0000c0 8b 2c 4d 3e 23 5b af bd 2b c7 ba 3d 86 38 84 bd
       0.20036523 -0.08562305 0.091200195 -0.064560935
0000d0 7c 77 cf 3d 99 77 11 be 6e 51 7d be b9 4f 2d 3d
       0.10130212 -0.14205779 -0.24738094 0.042312358
0000e0 a2 55 f4 3d 52 0e e0 bc a7 c1 6e bd 5e 7e c0 bd
       0.11930396 -0.027350578 -0.05829015 -0.09399103
0000f0 2b 87 17 be 5c 62 0e be 16 5e 07 3e 86 22 2f 3e
       -0.14797656 -0.13904709 0.13219485 0.17103013
000100 f0 2e 9f bd d3 11 16 3d 99 f5 e3 3d 96 c5 b4 bd
       -0.077726245 0.036638092 0.111308284 -0.08826749
000110 b5 b8 75 bd 94 97 47 3d e9 08 e9 bd ac 48 94 bd
       -0.059990603 0.04872854 -0.113786526 -0.072404236
000120 55 eb 90 3d c4 87 ad 3d a6 ef 28 be aa 58 ec 3c
       0.07076136 0.08473161 -0.16497669 0.028850872
000130 5c 68 10 3d 0b f8 6a bd 0a 7c 20 3d be 18 59 3d
       0.035255775 -0.05736546 0.039180793 0.05300211
000140 17 df 08 3e d5 6c 11 be 68 f6 d3 bd 6f 59 78 3d
       0.13366352 -0.14201672 -0.10349733 0.060632166
000150 5f 88 b5 bd 18 2a 0b 3e 08 8f 22 3e ed 3e 8d be
       -0.08863901 0.13590276 0.15874875 -0.2758707
000160 63 fd 25 3e eb 16 88 3d ef 60 8a 3d 5c 8d 9a 3d
       0.1620994 0.06644996 0.0675677 0.075464934
000170 d8 02 aa 3d d9 a7 7d 3d b0 5a 21 3d ce 3f 8a 3d
       0.08301324 0.06192765 0.039393127 0.06750451
000180 fd 8e 59 be ba 77 a8 bd c0 05 1e 3e de f8 0c 3e
       -0.21245952 -0.08225961 0.15431881 0.1376681
000190 0b 25 42 3d 4d ad 01 be 55 b6 69 bd 59 bc 87 3d
       0.04739861 -0.12663765 -0.05705865 0.06627721
0001a0 38 fc 18 3d 4e 50 a5 bd 32 6a b8 3d 96 2c bc 3d
       0.03734991 -0.080719575 0.0900463 0.091881916
0001b0 ae 44 c0 3d e7 a8 52 bd 07 96 43 bd 09 e9 33 be
       0.093880996 -0.05143061 -0.0477505 -0.17569365
0001c0 4c fb 07 3d 13 a6 44 bd 92 25 aa 3d 60 83 28 be
       0.03319864 -0.048009943 0.08307947 -0.16456366
0001d0 38 30 8c bd d2 f3 cf 3d 9c e5 9f 3d fd 41 cc 3d
       -0.068451345 0.10153927 0.078074664 0.09973524
0001e0 a2 21 4d 3d 03 fd ef 3d 77 27 1d 3e be c6 18 3d
       0.050080903 0.1171818 0.15347086 0.03729891
0001f0 60 9e 09 bd 2c ff a2 3d 0a 66 9d be d2 26 c8 bd
       -0.033598304 0.079588264 -0.30741912 -0.097730294
